A2/softmax_best_model.pt (torch, 247478 bytes, 1 tensors)

W f8 [3073, 10]
000000 b3 0b a2 f5 59 27 7c 3f de da f0 1e fe 2d 76 bf
       0.006873465923606869 -0.005414955768222566
000010 0d 12 42 7e 18 29 5c bf 87 da a9 d8 c8 d0 8b bf
       -0.001718782347809203 -0.013581818687481885
000020 c6 27 30 9a b9 9f a4 bf e1 03 f0 3b 73 82 7e bf
       -0.04028110510996856 -0.007448625691723416
000030 b7 b2 c2 31 3b 6e 92 3f 5f 7a d9 1c a6 d4 78 bf
       0.017998623764173795 -0.00606217277308349
000040 0e 49 bc 91 eb 99 a9 3f 6e 2d 96 41 da 73 38 bf
       0.050002442874886296 -0.0003731162883801796
000050 35 a1 ea f2 db 2b 6a bf 74 42 78 41 fb 4d 6c 3f
       -0.003194741809540736 0.0034551532114693254
000060 7b 3c 81 ce e2 08 8a 3f 6d 88 76 8f 6e ee 74 bf
       0.01271226113035894 -0.005110198856899212
000070 10 c7 fe 24 bf 4a 85 bf 35 e4 b4 a4 6a d0 98 bf
       -0.010396474186424892 -0.024232546141522888
000080 20 b2 a6 59 bb 0c 96 3f 9b 88 39 54 84 ac 96 bf
       0.021532943102714808 -0.022142474785490234
000090 95 9e a0 28 e4 0f a5 3f 94 dd 2f 56 84 2e 8c bf
       0.04113686557712729 -0.01376059902211927
0000a0 e8 94 d4 47 56 8f 86 bf f4 6a d4 46 83 d7 88 3f
       -0.011015581194963223 0.012129808043530123
0000b0 a3 9f 35 d2 04 0b 95 3f d6 ca 84 69 c1 e2 5d bf
       0.020549846010368033 -0.0018240822592587211
0000c0 7c e6 25 e4 cb 93 37 3f 1f 8f 9f aa 46 48 95 bf
       0.0003597615033395852 -0.020783523715990456
0000d0 43 cf ce c4 df 0a 8e 3f 17 a3 6e d5 97 ff 90 bf
       0.01466917819366354 -0.016600010301462378
0000e0 8b ba 4b 9e a0 34 a0 3f c2 22 87 06 64 d6 9d bf
       0.0316515153152653 -0.029138148210935418
0000f0 fd 89 b2 11 74 46 74 bf c2 55 22 f1 97 67 83 3f
       -0.004950002093354386 0.0094749327147764
000100 c0 f1 3f 0d 71 d4 89 3f d9 4a f7 64 17 61 64 bf
       0.012612231461383128 -0.002487703029808369
000110 81 a9 c0 2f 08 e9 6a 3f 7e 2d bd c8 26 26 61 bf
       0.0032849464314683168 -0.002093387365595666
000120 60 35 5e c4 66 7c 60 3f eb 4c 84 2a c0 23 93 bf
       0.002012444226187668 -0.018691065402049494
000130 57 d2 73 55 5a 51 a1 3f 73 48 38 c9 df e3 a0 bf
       0.03382379811401808 -0.03298854190156044
000140 87 e7 d1 73 1f 6e 72 3f b8 4b 11 b0 27 c2 90 3f
       0.004499552594205875 0.016365642663298735
000150 93 a4 af 59 ba 6e 6e 3f 52 2f ba d1 a0 07 7d bf
       0.003714908566952399 -0.0070873529435962635
000160 0e d6 6a d3 bd d8 8c 3f 1a 15 08 f1 5c 69 62 3f
       0.01408527661747441 0.002247506643700559
000170 01 db c9 6c 44 22 7f bf 84 f9 a1 7c 8f e4 94 bf
       -0.007601039204579108 -0.02040313909719195
000180 0c b1 06 f3 61 80 9a 3f 94 da 4e c9 94 3b a0 bf
       0.025880365808618896 -0.03170456845639538
000190 4f 87 c3 f1 45 67 78 3f 9a c8 ac 95 e1 26 73 3f
       0.005957864017746519 0.004675751867397571
0001a0 44 fe 3d 04 1b d3 82 3f 27 db c4 48 7e ae 7e bf
       0.00919171435066269 -0.007490628526560162
0001b0 5a 0e bc c2 c5 e8 55 3f 87 f6 ed be 39 51 3e bf
       0.0013372355705890877 -0.00046260509309790264
0001c0 4a 55 48 89 8e 8b 53 bf c2 e2 71 de e5 f6 67 3f
       -0.0011929408984817252 0.0029253472926565613
0001d0 28 bf 9a 93 32 ca 95 3f c4 7f 25 4e 5e 8b a2 bf
       0.021279134997427424 -0.036219546355595905
0001e0 96 32 b2 dd 54 9e 22 3f 58 59 f1 c9 3a 3d 74 3f
       0.0001420477482024964 0.004941205638792155
0001f0 86 ca 30 e1 ed f0 88 3f 53 ea 6e b8 4d 38 52 bf
       0.01217828601338523 -0.001112056635732235
000200 e2 91 c5 c0 41 9f 62 bf 53 3c fd e1 dc 42 7b 3f
       -0.002273205207688132 0.00665556223232418
000210 22 b1 78 1f fd e6 65 bf b7 97 bc 35 c0 18 75 bf
       -0.002673620587094431 -0.005150557346302812
000220 75 cd 60 df 9c db 93 3f 41 e4 53 e7 0c 6f a0 bf
       0.019392443784636854 -0.032097247350926235
000230 7b 10 1b fb ea fe 79 bf f8 fa 7c b5 43 c1 73 3f
       -0.006346624273366182 0.00482298325351737
000240 a6 52 b6 57 be 90 89 3f c3 2e 30 58 16 04 93 3f
       0.012483107616199373 0.018570279247838394
000250 64 f5 e1 43 a7 9a 15 3f 22 38 20 39 c7 01 5d 3f
       8.241315751607786e-05 0.0017704434908441054
000260 ac 5a aa a5 f3 aa 59 3f 4a 9e 32 a2 bc 2e 99 bf
       0.001566636978770279 -0.024592349433673534
000270 61 18 77 c7 e4 5a 97 3f 27 81 40 eb 4e e8 9f bf
       0.02280766932906209 -0.03115962324966506
000280 26 0a 52 be 47 ab 81 bf e2 0c 49 1c da 01 88 3f
       -0.008627472396487933 0.011722282398415055
000290 61 ab 9c 3a 25 3e 56 3f 02 af f5 d1 98 08 89 3f
       0.0013575900615687352 0.012223428637944792
0002a0 4d 4e a3 c6 3c a0 80 3f 9d 79 5c e8 6c bc 8b bf
       0.008118128597209973 -0.01354298671827508
0002b0 ef 24 82 ec 7f da 9d 3f 89 a8 2d 13 67 fd a0 bf
       0.029153822717977226 -0.03318330868826631
0002c0 73 56 82 f1 76 70 8c 3f 39 a3 75 55 c5 9c 95 bf
       0.013886384244226257 -0.021105845776591557
0002d0 1f f7 fe df 13 e4 8a bf 4b b2 6b 80 2c d3 8f 3f
       -0.013130336068452984 0.01553950087460367
0002e0 c6 6b 29 e5 dc ff 4c 3f 08 54 78 9b 82 17 86 3f
       0.0008849934186615442 0.010787029618805746
0002f0 ee c2 89 82 e5 03 8d 3f 58 6a 27 bd a7 4a 3f 3f
       0.014167588278014755 0.0004774722594028994
000300 8f cf 80 de ed b5 97 3f 6e 6e 31 08 9e 2b a0 bf
       0.02315494223166997 -0.03158277368558236
000310 a5 69 36 f8 47 19 80 3f a1 60 f1 29 f4 d5 9c bf
       0.007860719930978652 -0.0281599188423064
000320 eb f8 ac 9c b4 12 87 bf e0 da c5 3f 3e 43 7d 3f
       -0.0112661466897603 0.007144206200215136
000330 cc 51 cf 1e 94 50 2a bf 49 4e f8 b7 84 73 86 3f
       -0.00020076568708183998 0.010962521423642306
000340 82 6f 2c 39 23 54 86 3f 6d 16 b0 b6 9a 44 90 3f
       0.010902667219447219 0.015886704826718324
000350 5e c7 06 6d a8 69 90 3f 6c c0 a3 a5 93 d1 a0 bf
       0.016028052954147547 -0.03284894368141597
000360 ee 68 aa e4 6e c5 84 3f 98 5e 7c 44 25 64 9b bf
       0.010142198899576429 -0.026749212555925966
000370 27 76 37 0f 33 aa 4b bf 0d 53 ae 4a e5 00 85 3f
       -0.0008442639650032045 0.010255614606458541
000380 c4 ee 97 ec bc 23 6a 3f 17 7a ec 2f c1 f0 96 3f
       0.003190869324269348 0.0224027810573891
000390 90 38 ce 54 34 ba 53 bf 61 fd e4 ee 1f 5c 87 3f
       -0.0012040625617575663 0.011406182744962025
0003a0 85 87 b1 71 9f 49 46 bf 5b 22 fd b7 97 3b 96 bf
       -0.0006801632438391136 -0.021711702923570147
0003b0 7e c6 70 4f 12 70 62 3f a2 21 e6 9b ba aa 99 bf
       0.002250705492337356 -0.025065341725651565
0003c0 45 05 1d 8c d4 41 76 bf dd 14 61 43 90 48 a3 3f
       -0.005433874381027441 0.037662990784647944
0003d0 90 e9 73 e8 73 51 50 bf 53 48 e0 b7 52 e8 94 3f
       -0.0009959823526616042 0.020417492363840783
0003e0 3c b0 4a a9 bc 5e 79 bf 5e 13 9a ae fd 90 6d 3f
       -0.006193863828837517 0.0036091761328997237
0003f0 a2 7d cd 96 7f b9 6f bf 77 9f 42 d7 dd ca 95 bf
       -0.003872632214935571 -0.021281687034075483
000400 bf 8d 1e 05 e8 c7 78 bf 90 63 fd 4f dc 49 92 bf
       -0.00605002053081044 -0.017859880811872453
000410 63 16 14 b2 00 7f 77 bf f5 41 0c e7 31 4f 9c 3f
       -0.005736353604566344 0.02764585468963961
000420 a0 74 b0 f6 02 73 77 3f 5f da 02 9e 11 8f 93 3f
       0.0057249179617687995 0.019100451726183795
000430 b0 99 fe bc 8b 2c 7e bf 18 ed 58 53 d6 a9 37 3f
       -0.007366700985505778 0.00036107523496627233
000440 2e 0f 04 01 1d 6c 8b 3f e6 a2 7d b8 fb b0 a2 bf
       0.01338980349874638 -0.03650652529797131
000450 4f 74 85 cb 0c fc 5c bf 08 53 20 66 56 67 8e bf
       -0.001769077773210687 -0.014845538131376582
000460 d4 ed bf c2 da 2c 84 bf 5c c5 92 dd 2e e4 8c 3f
       -0.009851178234376791 0.014107099663621163
000470 9c 54 5d 91 39 78 8a 3f df 35 18 57 df 3d 8f 3f
       0.012924623249697391 0.015254731030860334
000480 c8 da 1e 43 f4 3d 75 3f c8 6f 19 41 fc 2a 6d bf
       0.005186037205865808 -0.0035605360833823353
000490 16 93 e7 5e 77 82 70 3f 49 e0 05 17 74 59 a2 bf
       0.00403067235172185 -0.03583872586290277
0004a0 ee 43 62 44 a3 47 5b 3f 0b ba bb 23 a0 12 70 bf
       0.0016650289922248668 -0.0039240127041311286
0004b0 66 b0 86 3c db db 89 bf 3f a4 ce 66 65 61 86 3f
       -0.012626374039278864 0.010927955818106237
0004c0 f2 2e 66 bf 06 fa 9a 3f bf 01 92 24 9b d0 90 3f
       0.02634439986427046 0.016420768839908947
0004d0 42 ba af 07 9e f7 85 3f 9d 0e 17 d8 bc 06 8a bf
       0.010726198777743726 -0.012708163589997762
0004e0 67 e6 1c 8c 78 0e 8a bf 26 2c 03 e7 01 37 9f bf
       -0.01272291352835282 -0.030483274197461573
0004f0 22 74 73 b6 80 31 81 3f 2f 0e e9 a2 fc 85 71 bf
       0.008395200317346922 -0.004278170452895177
000500 92 56 7a 22 8e b0 8a bf 58 e9 5e c6 a3 43 89 3f
       -0.013032064845258238 0.012336043826384355
000510 47 93 02 96 b6 64 91 3f 52 72 e7 8e 3e d4 87 3f
       0.016985752969634473 0.011635292755209612
000520 26 4a 30 9a a2 4a 8a 3f 9e 2e e0 e9 2b b7 8a bf
       0.012837667780364614 -0.013044684481449405
000530 18 79 e0 bf ab 1f 86 bf 15 b8 47 ea f7 ef 9a bf
       -0.010802594941250507 -0.026306031870198938
000540 70 91 c7 e9 78 a6 86 3f 81 10 70 13 5e 67 5b bf
       0.01105970824659927 -0.001672593947433604
000550 c4 8a 3b 36 7c 33 84 bf 2a 82 13 bf fd eb 7a 3f
       -0.009863825230643448 0.006572714993325715
000560 b6 1a af ed 07 dc 67 3f 99 4a 4f d0 60 45 7e 3f
       0.0029125361301994513 0.007390382937006245
000570 6b c8 c1 78 c3 07 8a 3f 58 b6 1a a5 4a 9a 50 bf
       0.012710120318136306 -0.0010133484796982697
000580 8d 2f 1c b7 3c 8d 78 bf cb 35 da 44 67 92 99 bf
       -0.00599406926063385 -0.024972547128120397
000590 49 ba 4d fc d1 be 71 3f 89 4e 8f f1 70 3b 80 3f
       0.0043323710022905105 0.007925875064678027
0005a0 54 73 a4 18 b2 89 8b bf 39 99 3f 78 bc 0b 71 3f
       -0.013446227433229353 0.004161583146901565
0005b0 fa 2c f2 00 b0 01 8d bf c3 69 67 54 46 52 9e 3f
       -0.01416337492835006 0.02961072817002176
0005c0 c4 17 96 c6 32 84 85 3f 95 71 85 17 4d 60 77 bf
       0.010506054578183106 -0.005707074299007427
0005d0 57 e1 a1 8a ff 9e 80 3f 10 82 89 d6 eb f4 97 bf
       0.008115765016768845 -0.023395237893398202
0005e0 63 21 b6 0c e2 47 4f bf 27 46 a6 7c 78 9a 75 3f
       -0.0009546140440060243 0.005274267818451451
0005f0 fe 6b e8 9b 21 1e 93 bf e6 fb f4 a1 9b f3 82 3f
       -0.018669629231322198 0.009253707771334118
000600 3c c5 73 19 d0 72 85 bf 2d b5 32 05 d6 bf 99 3f
       -0.010472894455662123 0.025145858828797763
000610 4b bb a5 df 93 0f 8a 3f 17 4b a5 28 01 d4 43 bf
       0.01272502447383563 -0.0006051068933551088
000620 fe e4 59 6c 99 92 78 3f a4 46 1f f1 d8 7f 90 bf
       0.005999182996327733 -0.01611269923870985
000630 a7 08 68 c4 c0 c1 56 bf c6 f1 a0 82 76 14 78 bf
       -0.0013889677517231831 -0.005878889971480955
000640 06 92 bf 7a ec 90 8a bf 00 95 f5 84 bc 41 92 3f
       -0.012971732612592223 0.017828889479820198
000650 00 a5 26 ac f6 ac b1 be d3 50 48 4d 4d 99 90 3f
       -1.0535501791897957e-06 0.016209800569485133
000660 dc 36 00 a0 0e ee 73 3f fa 24 66 ea fd 9e 76 3f
       0.004865700844687484 0.005522720201392101
000670 71 63 88 8b e6 5a 64 3f 62 bd ac 7e 8d 46 9b bf
       0.0024847510178571054 -0.026636324745763836
000680 1f 5b a1 9a 90 d6 7b 3f 08 38 35 da 52 e2 8c bf
       0.006796421870680885 -0.014103553089309898
000690 69 1f 37 75 9b e5 8d bf 43 13 83 44 81 ed 90 3f
       -0.014598097338321474 0.016531009489671133
0006a0 41 a6 15 dc 3e bd 80 3f da 10 6d a8 c1 17 81 3f
       0.008173457232902527 0.00834609313245276
0006b0 9f 4b 61 b8 55 83 5b 3f 92 57 78 00 8b 9e 8c 3f
       0.0016792618858018982 0.013974271728368657
0006c0 f6 78 e8 0f 4b 70 80 bf f7 38 1c 0d 3a 7b 96 bf
       -0.00802668230340629 -0.021954447794137768
0006d0 23 74 99 b5 e6 f9 90 3f ce f8 56 ac 10 32 95 bf
       0.016578297456693158 -0.020698795813353148
0006e0 8a 66 9d 49 8a 8b 86 bf 72 89 e1 77 28 44 86 3f
       -0.011008339282557306 0.010872188719251528
0006f0 e0 69 b2 ef f7 04 7c 3f 3a cf f1 d2 30 b0 93 3f
       0.006840675832018722 0.019226801753077206
000700 20 20 de 0f cd 3c 78 3f eb ae 19 8a af de 82 3f
       0.00591735937440066 0.00921380176733729
000710 8a 5c 14 28 75 5c 89 bf 87 ea 9f 02 c1 df 92 bf
       -0.01238338020861664 -0.018431678567120826
000720 e3 25 ec b8 d8 f6 8d 3f f2 71 01 55 b6 78 99 bf
       0.014630978721032533 -0.024874543131192035
000730 ef 3a 00 dc 3d 37 86 bf 5f f4 de c8 ea 41 97 3f
       -0.010847552563089972 0.02271239138621117
000740 b3 c5 65 cf a5 e5 4d 3f 89 1c e3 f3 38 20 a5 3f
       0.0009123859042984766 0.04126146294725525
000750 7b 56 fd ad 9a 66 72 bf f1 49 84 b4 38 90 61 3f
       -0.004492382256861323 0.0021439654848418523
000760 f8 b9 9d 7c fd 3a 80 bf b3 49 01 4b 50 c7 89 bf
       -0.007925014844400544 -0.012587191857311142
000770 41 55 59 f3 a9 b0 8a 3f 7a 99 d3 72 28 a3 a6 bf
       0.01303227208988267 -0.044213546769060266
000780 9b a7 12 6f f5 f3 8a bf 90 46 f8 23 b2 9d 93 3f
       -0.01316062684266566 0.019156249471115105
000790 c6 aa 3a 0b c6 92 74 3f aa 72 01 32 46 00 a4 3f
       0.005022786721080313 0.03906459198399166
0007a0 c6 97 bd 59 7e 3b 8c bf 30 fa 11 55 7d ed 36 3f
       -0.013785349954286274 0.00034984884138814214
0007b0 bd 91 0a ba 49 c8 64 bf 12 93 3a bc 7d 93 70 bf
       -0.0025369110083650324 -0.004046908524888664
0007c0 a5 c3 f7 00 f8 74 90 3f d9 fb a7 41 15 9f a7 bf
       0.01607120042712364 -0.04613558222262499
0007d0 ae 6f 43 d7 d5 30 8d bf 54 fb 1b e8 2b 1a 87 3f
       -0.014253302223032307 0.011280386944688615
0007e0 80 99 08 de 53 fa 69 bf 0d f9 a3 ee 4f b0 a2 3f
       -0.0031711233171051734 0.036501405602381444
0007f0 0a 4a f5 e8 3a 7c 61 3f ff 81 da 20 ee 0e 86 bf
       0.002134432848529548 -0.010770664575205478
