A2/svg_best_model.pt (torch, 247450 bytes, 1 tensors)

W f8 [3073, 10]
0	0x3f87fa74c470eebe	0.011708175892742086
1	0xbf454b72e5ec1f3e	-0.0006498633409543831
2	0x3e986333698e4800	3.6340211689259595e-07
3	0xbf90f5e5dd06ab38	-0.016563026061400893
4	0xbf9f1c96702f8ea5	-0.030382490727687856
5	0xbf8068633facf7a4	-0.008011603718497025
6	0x3f89f27b494fd1a8	0.012669528174208036
7	0xbf74fac968650f74	-0.005121981381595354
8	0x3fa2daf470a01423	0.03682674288578649
9	0xbf3f92e9304406c1	-0.00048177903251210233
10	0xbf2a43147caf34ae	-0.00020036339841881162
11	0x3f718aff783cc7c0	0.004282949379374956
12	0x3f90b8d7462dddf3	0.016330112131496887
13	0xbf599fd65b56e61e	-0.0015639870956490952
14	0xbf736a711336d1df	-0.004740182589945323
15	0xbf9ffadfd360420b	-0.03123044707905546
16	0x3f92f14146d81092	0.01849843974015692
17	0xbf91212c12b3e500	-0.01672810424949933
18	0x3f9cc3ef9f58b8e6	0.028091186619513396
19	0xbf8a171fd47584af	-0.012739418669925532
20	0xbf87e5434734c3eb	-0.01166775284818474
21	0x3f6a3eab1f26eadc	0.003203710767789898
22	0x3f9c40a99ef32aab	0.027590418173341884
23	0x3f67c66c22bed036	0.0029022323633061354
24	0x3f62d3eaf8f7d159	0.0022983159358266722
25	0xbf955985b2e75180	-0.020849312824638755
26	0x3f92529b9073a012	0.01789324826395961
27	0xbf8baffee68cc8dc	-0.013519278918100168
28	0x3f93c0ad349fcbed	0.01928969033901844
29	0xbf9bcb3d5b2c69f9	-0.027142485322750407
30	0xbf7e48a606c8ab39	-0.007393501797688989
31	0x3f717a685e7c2384	0.004267127696729104
32	0x3f93759e433af09e	0.01900336537686142
33	0x3f5c99ec07b6209e	0.0017456822377841861
34	0x3f68f7087734c98e	0.0030474820465766278
35	0xbf5be972cf1ffd8b	-0.0017036076719703943
36	0x3f7112e24546f5a6	0.0041683996864185
37	0xbf916743bc146018	-0.016995485643832436
38	0x3f986a2bc2c6dc24	0.023842509997589315
39	0xbf9eb432b3011818	-0.02998427598529227
40	0x3f6e9abb7ca30927	0.0037358915188586863
41	0x3f87b7b6a9f3dacd	0.011580874501743743
42	0x3f83ecf30eb609b6	0.009729288946577746
43	0xbf738a645573d1b7	-0.004770652703190262
44	0x3f849b2e48c5ab60	0.010061608882741602
45	0xbf5f409531ba93ff	-0.0019074875807885137
46	0xbf70ec40e5d56162	-0.004131558901768835
47	0xbf94e2bb63b9f603	-0.020396163904015562
48	0x3f96ec7f58446010	0.02238654113998001
49	0xbf9aec10530075b9	-0.026291136804607016
50	0x3f82d988c143caf8	0.009203976057027927
51	0xbf5460f85bebde1e	-0.001243822611000207
52	0x3f8d842d956e8d71	0.014412265894697214
53	0xbf82217e6a6244f5	-0.008852946874215986
54	0xbf4de07ea20a1f68	-0.0009117716145547851
55	0xbf66e79c9b495ad1	-0.0027959879610464995
56	0x3f74339ebc93c7d7	0.004932041230164295
57	0xbf60b9ba388e79ab	-0.002041686737768352
58	0x3f96b252f370dc3f	0.022164627178622217
59	0xbfa1d9e068d41307	-0.0348653915371298
60	0x3f61bcf9c712888a	0.002165305945326661
61	0x3f6d0012c562f2ed	0.003540074026288634
62	0x3f90314132cd7f5f	0.015812891698601002
63	0xbf6099abdae3f4a4	-0.002026401190163245
64	0xbf626e32d526a3e3	-0.002249812395536997
65	0x3f7300078cd4fcd5	0.004638700001407166
66	0x3f457b08e1102965	0.0006555360179174961
67	0xbf7de46e34cf2408	-0.007297926419547636
68	0x3f931e51db880966	0.01867034819043436
69	0xbfa15c1d8a957ba6	-0.033905909697515654
70	0xbf7c48bec4c5d5ff	-0.006905312719359013
71	0x3f6ef5df7a22adca	0.0037793507372805056
72	0x3f90d71de4e569e8	0.01644560536929332
73	0x3f922a6c4d557893	0.01773995611198893
74	0x3f5066a06e9c5cb0	0.0010010306090800052
75	0x3f08df63ad5a88f4	4.744074764785776e-05
76	0x3f60234f075e5000	0.0019699615031161244
77	0xbf99b803e0c1e405	-0.025116024582960268
78	0x3f965ce3bb6bfddc	0.02183872062141555
79	0xbf9f88f4ace796f5	-0.030795882275831372
80	0xbf737a7e1bb7dded	-0.004755489931532503
81	0x3f882c9b59bbd1ba	0.01180383079142976
82	0x3f8764aef92a3544	0.0114225072659574
83	0x3f81c4f366169831	0.008676435044275706
84	0x3f789f28b2a7c2e0	0.006011160827697565
85	0xbf8a10231e0acee7	-0.012726091722789558
86	0x3f9aef37ad3cf3a5	0.026303167294134195
87	0xbfa2193604819592	-0.03534859471327957
88	0x3f8d50952461edb6	0.014313855336005026
89	0xbf9a50c8df16ba6d	-0.025698793998964953
90	0xbf7f97acaa0f16fb	-0.007713007421392022
91	0x3f8b8c1cd7fd277c	0.013450837460954317
92	0x3f75b859ead78502	0.005302764167454345
93	0x3f83e64b01738b99	0.009716592771331455
94	0x3f8831fb83e61b20	0.011814084017499449
95	0x3f54a432f524181d	0.001259851229919124
96	0x3f96f3afa4133f3e	0.02241396368918846
97	0xbfa02715fb4449c5	-0.03154820148678853
98	0x3f86050c570a2b37	0.010751816183320535
99	0xbfa2266ec65968b5	-0.03544946833854238
100	0xbf79cfbce1bbc6a9	-0.006301629847926962
101	0x3f72b6267ace845c	0.004568243323690071
102	0xbf2ac817305d6115	-0.00020432742183618875
103	0x3f8ce8713b340b17	0.01411522352146259
104	0x3f83d8f96b1d44a7	0.009691189366693399
105	0x3f931f88f26d47d4	0.018674983784258206
106	0x3f882dfcfd075842	0.011806465598891095
107	0xbfa0dfb204f4bce9	-0.03295666037080897
108	0x3f8973607edc5f42	0.012427095290646787
109	0xbfa04a9f5590646b	-0.031819323725536496
110	0x3f73ca08d0010e36	0.004831346916094817
111	0x3f6851656a8f127b	0.0029685002122923887
112	0x3f66ee546200d020	0.002799191293911832
113	0x3f9d7e2e21fad075	0.028801651786765043
114	0xbf5b9a3a79f86357	-0.0016847201403662104
115	0x3f88de05d0c95c50	0.012142224725876144
116	0xbf79ef8b9f8b4232	-0.006331963923643035
117	0xbf937184679e3ea3	-0.01898772127566296
118	0x3f7198bd110e540f	0.004296053449157191
119	0xbf9d86a5ffe80b30	-0.028833955520904897
120	0xbf5adce5d44516f3	-0.0016395801950052607
121	0x3fa0f2690011ecb7	0.0330994427285644
122	0xbf75697fcf8aec4a	-0.005227565060233872
123	0x3f992916460dd132	0.024570796991114814
124	0xbf84efce8b472c3a	-0.010223020196368993
125	0xbf38f2818328e09c	-0.00038066541597770744
126	0xbf75fa7d120c7a6a	-0.005365837628032647
127	0xbf904295b0bea5b1	-0.015879000580445616
128	0xbf4adec6f80d2689	-0.0008200141456679726
129	0xbf92916c494d7e20	-0.018132869695703602
130	0xbf06e2c6e0ccf8c7	-4.365128925208763e-05
131	0x3f9dd1a3b0ed2a53	0.029120023416263695
132	0xbedf6e020c790cc0	-7.493428888563625e-06
133	0x3f9212bf05635dab	0.017649635986200767
134	0xbf83cfd1c9ab2b67	-0.00967372795766659
135	0xbf800ba29d8976fb	-0.007834692413946956
136	0x3f8de6f48069858e	0.014600668114499251
137	0xbfa02aa4d5bfa940	-0.031575347034805024
138	0x3f78c0dd950df12d	0.006043305926933845
139	0xbf92b83219a1915c	-0.018280775846862482
140	0xbf747067fd245e6a	-0.0049900114120401216
141	0x3f92f9fde9b16225	0.01853176821563997
142	0x3f813ee2560095ae	0.00842072319944517
143	0x3f901514e6cc436f	0.015705420100008135
144	0x3f803c62baf7aeb7	0.007927676516337951
145	0xbf8acc765d10f9dc	-0.013085293498190369
146	0x3f65f73ff424798c	0.0026813744635909072
147	0xbfa0e6d31ab87799	-0.03301105214289563
148	0x3f7bef56ada3c827	0.006820047938378016
149	0xbf8272282edf43bf	-0.009006799631522953
150	0xbf7d991851d35e90	-0.007226080893097411
151	0x3f87b50f6bd1a118	0.011575813749189964
152	0x3f99ddf2090d1272	0.025260717203553225
153	0x3f94b0ed0bd93512	0.020206168983624435
154	0x3f912f265588e3ac	0.016781424494385952
155	0xbf94d5b47051341b	-0.020346469264314587
156	0xbf90536243d90a2a	-0.01594308413610627
157	0xbf9eb38bb87e189d	-0.029981787810833372
158	0x3f863dd4e3959cf8	0.010860121913266671
159	0xbf86eb5e426c0dbe	-0.01119111671642414
160	0xbf83028ea17cb8a2	-0.009282221129606253
161	0x3f9094dcaabe07b6	0.01619286338928535
162	0x3f8d3dc057fb9bf0	0.014277937588714068
163	0x3f86ab059744fa0b	0.011068385771634067
164	0x3f8ce992188d843b	0.01411737573079296
165	0xbf913cf8a6e431db	-0.016834149538270764
166	0xbf7f7bbddbc16cdf	-0.007686368593648767
167	0xbf9c2e37eaff3f92	-0.027520059316713814
168	0x3f8ec9323aecda52	0.015032188819174373
169	0xbf833042afa4191b	-0.009369393334520517
170	0xbf829cafd1cc1d4c	-0.009087918844228902
171	0x3f7f3dc73bb4dada	0.007627275709913584
172	0x3f68be73908daa54	0.003020501816015023
173	0x3f46c1f6d48057f6	0.0006945090508476681
174	0x3f8d74300956a025	0.014381766591057563
175	0xbf7487929ce0a876	-0.0050121047079675265
176	0x3f613a35597ff464	0.002102951239065608
177	0xbf978c7f3771a3b6	-0.0229968907919191
178	0x3f7a98728213b42d	0.006493041322056786
179	0x3f66bff2db1ef66a	0.002777075126657637
180	0xbf877c0d02214cac	-0.011467076900009886
181	0x3f62d488c0a60f01	0.0022986098239828894
182	0xbf89f637c96e2c58	-0.012676654657999872
183	0x3f9c8eb090e37d01	0.02788806804971689
184	0x3f854085580f8696	0.010376970052621542
185	0xbf6d9630ebdd6086	-0.003611655759339585
186	0x3f8d9738da5a27d2	0.014448589480952654
187	0xbf94f4b3e17c3482	-0.020464716565630876
188	0xbf66c6d5c6898f89	-0.0027803588202903223
189	0xbf706cb9b70153d9	-0.004009938667953039
190	0xbf8b9564c10fec76	-0.013468539373198345
191	0x3f8144c5f2e658f2	0.008431955790723287
192	0xbf85ae22f0d67a20	-0.010586045241152198
193	0x3f997a67b1e4c046	0.02488100074077717
194	0x3f90c6d6331b83b8	0.01638350188193602
195	0xbf561b41662b09cc	-0.001349271646788541
196	0x3f7fbd1143702695	0.007748668132089205
197	0xbf8c74d95b19ecc3	-0.013894746868791668
198	0xbf6d7a5c820f7da0	-0.003598385505469273
199	0xbf8dcdaf95447b05	-0.014552470915587099
200	0xbf78d6aac377c61c	-0.0060640974474935015
201	0x3f89aeac7e1cbbb5	0.012540195082321274
202	0xbf5d8ddeb8c154d9	-0.0018038439766503904
203	0x3f89aba8b1cec88b	0.012534444738637759
204	0x3f764f7c59e67ff5	0.005446897265215957
205	0x3f7d47794ab68329	0.00714824084880731
206	0x3f7aa22f2911b256	0.006502327175536301
207	0xbf97d286c41a1671	-0.023264032096014412
208	0x3f8077f09539573b	0.008041266969637575
209	0xbf95977d499e635b	-0.02108569871743114
210	0xbf8e584840cf7b1d	-0.014816822507723476
211	0x3f8bf2ed19d25855	0.01364693865825132
212	0x3f7bb317e47ffa8a	0.0067625935844250005
213	0x3f82052bda4487f8	0.008798925970555857
214	0xbf4790a8ecffc208	-0.0007191490967653489
215	0x3f93a9557ed348a7	0.01920064531879775
216	0xbf80727de93ca37f	-0.008030875854801554
217	0xbf92dc84fb957bdf	-0.018419339995826674
218	0x3f95e18eea522823	0.021368248988928095
219	0xbf9c7429c03f7b02	-0.027786877020726138
220	0xbf8c90f36842d235	-0.013948346728605102
221	0x3f842d788a4523b7	0.009852353782337049
222	0x3f81d500c82a130a	0.008707052334338456
223	0x3f88dcb86119cff2	0.012139740432054656
224	0x3f69886f6b976694	0.003116815202457721
225	0x3f896f5706810c26	0.0124193953380481
226	0xbf85473e456af072	-0.010389791959248582
227	0xbf85f9d6cc52df96	-0.01073043643042108
228	0x3f91ff02e6605a0b	0.01757435351472662
229	0xbf9d6d524ea2d8e8	-0.02873734097439576
230	0xbf85a62b7c2933d8	-0.010570850111571703
231	0x3f84a39c54430297	0.010077687570061484
232	0x3f784a5e96fe1680	0.005930299273932627
233	0x3fa219091a10b15f	0.03534725611857214
234	0xbf71061501023997	-0.004156190916673095
235	0x3f78c888c005dca1	0.006050619297062771
236	0xbf85b8c23741b7e6	-0.01060630541925529
237	0xbf71d09b84a9c320	-0.004349334233311436
238	0x3f8f60b8809cb0d9	0.015321198868683815
239	0xbfa60a537f98aa7e	-0.043047532392241
240	0xbf8031daa0c89a6e	-0.007907588988996763
241	0x3f70545050319cc8	0.00398665783277536
242	0x3f87e1064e6d8848	0.011659669178417556
243	0x3fa3a2c9727bc744	0.038351340508497006
244	0xbf89c3b6a7b69a43	-0.012580325120166274
245	0x3f741dcbeb5e2ed6	0.004911228714160129
246	0xbf7a12919e0be1f1	-0.006365364854666642
247	0xbf61c0f4943ea308	-0.0021672036109133853
248	0x3f90edbda8c4520e	0.016531909394943915
249	0xbfa7c47eab71e979	-0.04642101137956706
250	0xbf87dda8ca1320e0	-0.011653250376540247
251	0xbf03ea2e7769f8d8	-3.7984412235113417e-05
252	0x3f654f06dbffed5e	0.0026011594745775487
253	0x3fa2bc083e75bd4a	0.03659082186174574
254	0x3f55ca2b77d86ef8	0.0013299393170944068
255	0xbf72dd39ad311d76	-0.004605508135745997
